gnn_spam_model.pt (torch, 128099 bytes, 4 tensors)

conv1.bias f4 [128]
000000 7a cd ca 3c a8 3c c1 3c ac 4d a2 3c 3f 62 d2 3c
       0.024756182 0.023588493 0.019812427 0.025681613
000010 be a0 5b bc a6 c0 d0 3c ec 4b 43 bb 3d 19 05 bc
       -0.013405023 0.025482487 -0.0029799892 -0.008123693
000020 04 70 80 bb b2 ea 1c bc 01 96 2f bc 70 60 94 3b
       -0.0039196033 -0.00957744 -0.010716916 0.004528098
000030 34 bb d2 3c 6b 03 24 bc 62 b6 b8 3b 14 c9 d1 3c
       0.025724031 -0.0100105805 0.005636976 0.025608577
000040 2a 03 bc 3c 00 2e 13 bc e2 fb 8a 3c 03 a8 7e bc
       0.022950727 -0.008983135 0.01696581 -0.015542987
000050 f7 69 cf 3c 34 c9 d2 39 d6 a8 d3 ba 2a 13 d9 3c
       0.025319083 0.0004020423 -0.001614834 0.026498396
000060 8e 61 d0 3c 5d 3b b4 3c 17 12 ca 3c ce 1c c8 3c
       0.025437143 0.022000963 0.024666829 0.024427798
000070 8a 9b d3 3c 98 f7 ce 3c 74 79 d8 3c 2f b8 d5 3c
       0.025831003 0.025264546 0.0264251 0.026088802
000080 36 e7 ce 3c a0 a4 b4 3c 56 56 9e 3c 95 69 c9 3c
       0.025256734 0.022051156 0.019328278 0.024586478
000090 44 da cd 3c 58 ee 54 3c 14 05 a4 3c a8 b6 b0 3b
       0.025128491 0.012996279 0.020021953 0.005392868
0000a0 e5 ab b5 3c e3 28 cd 3c fa 3e c4 3c 90 a4 cd 3c
       0.022176692 0.02504391 0.02395581 0.025102884
0000b0 28 ff dc 3b 64 28 c4 bb ce 56 cf 3c ff c1 d9 3c
       0.006744284 -0.0059862603 0.025309946 0.026581762
0000c0 1c 87 c3 3b 2c 12 13 3c ec 04 a9 3c e1 a2 cf 3c
       0.005967034 0.0089765005 0.02063223 0.025346221
0000d0 86 38 ce 3c c2 03 ce 3c fd 98 75 3c c9 52 d1 3c
       0.025173437 0.025148276 0.0149900885 0.02555217
0000e0 46 60 c2 3b 49 da d1 3c 4e 06 43 bc 23 ff 6f 3c
       0.005931887 0.025616782 -0.011903359 0.014648232
0000f0 72 5e d4 3c 90 28 a1 3b f4 83 c8 3c 21 df d5 3c
       0.025923941 0.0049181655 0.024476983 0.026107373
000100 62 5e c9 3c 0e f7 d6 3c 27 fd ca 3c 29 64 76 bc
       0.024581138 0.026240852 0.024778916 -0.0150385285
000110 76 2b a2 3c bf 1e cc 3c 41 58 db 3c 72 10 07 3c
       0.019796114 0.024917005 0.026775481 0.008243667
000120 95 6b 3b bc ff 83 92 3c ef ed c2 3c f1 1a 1e bc
       -0.011439224 0.017885206 0.023795096 -0.009649978
000130 a1 24 90 3c 33 e8 ac 3b 1c 36 d9 3c 50 e2 cc 3c
       0.017595591 0.0052767037 0.02651506 0.025010258
000140 f2 02 d1 3c b0 3e bc bb ca 28 1d 3b 38 ba ca 3c
       0.0255141 -0.0057447776 0.002398061 0.024747
000150 bf 3e bf bb 03 a9 cb 3c 36 87 99 3b 76 72 9e 3b
       -0.0058363373 0.024860865 0.004685308 0.004835422
000160 1b 51 c6 3c ce dd e8 bb 22 ed 9e 3c 2d 55 af 3c
       0.024208596 -0.0071065193 0.019400183 0.02140292
000170 8d 8d b6 3c 05 1a d1 3c b6 04 ce 3c 39 23 81 bb
       0.022284294 0.025525102 0.02514873 -0.0039409664
000180 d2 d5 09 bb e2 d4 60 bc cf fb b9 3c 69 8a c7 3c
       -0.0021031988 -0.01372263 0.02270308 0.024357991
000190 2a a5 c4 3c 8f 74 0b bc 06 53 cd 3c 08 e5 31 bb
       0.024004538 -0.008511676 0.025064003 -0.002714457
0001a0 44 9e d1 bb 78 b4 26 3c 8b a7 d2 3c 31 68 ca 3c
       -0.0063970406 0.010174863 0.025714656 0.024707885
0001b0 94 1a d4 3c 8a d8 ce 3c 0b dc aa 3c 3b ac d2 3c
       0.02589158 0.025249738 0.020856878 0.025716892
0001c0 38 de d5 3c a2 7f d5 3c a8 3e a9 3a ae 15 d1 3c
       0.026106939 0.026061837 0.001291235 0.025523033
0001d0 b7 e8 cd 3c 4d ef d3 3c ff 92 ce 3c f5 3a 35 bb
       0.025135381 0.025870943 0.025216578 -0.002765355
0001e0 d5 29 bd 3c 53 f4 ba 3c 53 43 56 bc dc 11 90 3c
       0.023091236 0.022821581 -0.013077575 0.017586641
0001f0 3e cc ce 3c c6 73 d9 3c ea b4 9b 3c 10 29 82 bc
       0.025243875 0.026544463 0.019007165 -0.01588872

conv1.lin.weight f4 [128, 242]
000000 68 02 ec bd b6 89 db bd bf b1 7d 3d 17 6d 20 3c
       -0.115238965 -0.10719626 0.06193709 0.009791634
000010 77 d1 bd 3d c1 70 d6 3d de 65 83 3c 52 14 b8 3d
       0.09268468 0.10470725 0.016039785 0.08988251
000020 b4 53 74 bd ad ad 18 bd ae 31 95 bd 3b 50 d3 3d
       -0.059650138 -0.037275005 -0.07284866 0.10318037
000030 c0 39 4f bd 88 8c 86 3d 3e ef aa bd 49 eb 97 bd
       -0.050592184 0.06569773 -0.08346413 -0.07417924
000040 a9 f6 c2 3d 0a 7d a2 bd f0 2d c4 bd e7 4d 5a 3d
       0.09519703 -0.079340056 -0.095790744 0.05329695
000050 35 01 8b 3d aa 23 48 bb 70 16 88 bd f5 5a b6 3d
       0.067873396 -0.0030538836 -0.066449046 0.089040674
000060 07 2e 11 3e 3c bb 8c 3c 67 e5 a6 bd 06 59 64 bd
       0.14177714 0.017179124 -0.08149224 -0.055748962
000070 1e 43 a7 3d 93 e7 46 bd e0 8a d1 bd 33 96 8f 3c
       0.081670985 -0.04856069 -0.102315664 0.017527675
000080 a0 22 c5 3c 08 7d a3 bd 22 4d 43 bd 15 fa d4 3d
       0.024064362 -0.07982832 -0.04768098 0.10399262
000090 1e 9b 86 bd e4 d4 de 3d 54 05 b3 bd 58 f7 63 bd
       -0.06572555 0.108804494 -0.08741251 -0.055655807
0000a0 89 19 76 3d eb 15 d5 bd 21 54 9b 3c 9f 25 a4 3d
       0.060082946 -0.10404571 0.018961014 0.08014988
0000b0 a4 97 c4 3d c5 9d c7 3d 5c 05 3f 3c be fb 13 3e
       0.09599236 0.09746889 0.011658993 0.14451501
0000c0 74 5e e8 3d 44 b1 76 3d 16 c3 13 3e 73 4e b1 bd
       0.113461405 0.060227647 0.14429888 -0.08657541
0000d0 48 e9 dd 3d 84 a3 06 3e 80 30 de 3c 53 c2 a2 3d
       0.108355105 0.13148314 0.027122736 0.07947221
0000e0 d8 1a 5b bd 6d 95 13 3d a5 12 bc 3d fb af 65 3d
       -0.053492397 0.036031175 0.09183244 0.05607603
0000f0 f0 a3 1c bd 98 00 13 3e 84 1c cf bd c4 35 e2 3d
       -0.03824228 0.14355695 -0.10112861 0.11045411
000100 9e 95 0a 3e 69 3b f3 3d b8 1f cf bd 15 e8 a9 bd
       0.13533637 0.11876566 -0.10113472 -0.08296219
000110 06 03 c3 3d 2a dc 34 3d c9 0d 79 bd 3b 4c cb bd
       0.09522061 0.044155277 -0.060804162 -0.09926649
000120 a9 b2 13 bc a3 d7 c5 3d 5a 25 e0 bb 41 2e 9b 3d
       -0.009014764 0.0966027 -0.00684039 0.075771816
000130 d3 5c 09 3d c5 16 a4 3c 91 ad a4 bc 7c 73 96 3d
       0.03353579 0.020030389 -0.020102294 0.07346246
000140 a7 b4 a8 bc fc a3 9d 3c 01 5d e9 bb 64 7b aa 3d
       -0.020593954 0.019243233 -0.0071216826 0.08324316
000150 8d 1f 14 3e 21 08 c2 bd ce ec 2a bd 6a 94 be bd
       0.1446516 -0.09474207 -0.04172974 -0.093056515
000160 91 e7 e8 bd 3e cb c1 3d 7e 69 e7 3d c7 08 10 be
       -0.11372293 0.094625935 0.11299418 -0.14065848
000170 a5 01 bf bc d3 31 70 bd 5a 72 44 3d bf da f6 3d
       -0.023316214 -0.058641266 0.047960617 0.12053441
000180 91 43 ea 3d c8 b4 d6 3d 7c d9 16 3e 00 b7 17 bd
       0.114386685 0.104837 0.14731401 -0.037039757
000190 8f c1 c1 bd c9 5f d1 3c 95 f3 da 3d 23 da f6 3d
       -0.094607465 0.02555837 0.10690991 0.12053325
0001a0 b1 1a 8f 3d 18 a4 a4 bc d4 79 32 3c 4a e9 96 3d
       0.06987513 -0.020097777 0.010893304 0.07368715
0001b0 a1 88 7b 3d 6a a4 55 3c ab 43 c6 bd 95 a5 ce 3c
       0.061409596 0.013039688 -0.096808754 0.02522544
0001c0 19 94 fc bd 72 ec 13 bd ec 93 64 3d 24 af a7 3c
       -0.12332935 -0.036114164 0.05580513 0.020469256
0001d0 83 87 b5 3d 09 88 17 bd 9d 3d 0e 3d 67 8a 6b 3d
       0.088637374 -0.036994968 0.034726728 0.057505038
0001e0 e7 6f 46 3d 7e 67 11 3c 8b 1a 14 bd a0 ff e2 3b
       0.048446562 0.008874772 -0.036158126 0.0069274455
0001f0 ea 7f 14 3d 9c 23 eb 3c 37 f4 0c 3e 51 95 95 bc
       0.0362548 0.028703503 0.13765036 -0.018259676
000200 c8 e0 8d bc e1 3e 81 bd 4d 55 c9 3d d4 f7 14 bd
       -0.017319098 -0.06310821 0.09830723 -0.03636916
000210 77 a0 80 3c 00 f9 a4 bd ad 19 b4 bd 04 3f b0 bd
       0.015701516 -0.080553055 -0.0879396 -0.08605769
000220 77 81 81 bd 16 27 47 bd 10 18 a0 3d aa 2d 19 3e
       -0.063235216 -0.04862126 0.078170896 0.14958826
000230 ad 69 e7 bd 2b 27 d0 3d c2 be 07 3e 71 95 b9 bd
       -0.11299453 0.10163721 0.13256362 -0.09061707
000240 68 b3 ce 3d 8b e4 47 3d 6c 01 66 bd ed 53 e3 bd
       0.10092813 0.04880194 -0.0561537 -0.11099992
000250 46 05 88 bd cd 5e 02 be 1f 5f ec bd a2 b7 d1 3d
       -0.06641631 -0.12731476 -0.115415804 0.10240103
000260 68 02 b7 3d 28 63 68 3d 60 a7 19 bd fc e0 10 bd
       0.08936006 0.056735188 -0.037513137 -0.03537081
000270 93 1e 82 3c 22 09 d6 3d 06 c9 50 3d 37 e5 04 be
       0.01588372 0.10450961 0.05097296 -0.12978064
000280 84 5d 85 bd 72 ec 05 bc 53 d0 95 3d 12 bd 98 bd
       -0.06511977 -0.008174049 0.07315125 -0.07457937
000290 20 e9 b5 bd e0 ca ac bd 65 13 27 3d 83 e6 81 3d
       -0.08882356 -0.08437133 0.04078998 0.06342795
0002a0 bb 1f 8d bd 79 26 ff 3d ff f1 eb 3d ae e3 c0 3d
       -0.06890818 0.1245851 0.115207665 0.094184265
0002b0 4c 19 33 bc 76 ab 09 3e 1f ee c3 3d d3 45 2d 3d
       -0.010931324 0.13444313 0.09566902 0.042302918
0002c0 26 61 f8 3d e1 b0 01 be d3 3b b3 bd fa 34 c8 bc
       0.121279046 -0.1266513 -0.08751645 -0.024439324
0002d0 f6 54 d0 bd 00 ee 5a bd 27 5c bf 3d ec 47 dc bd
       -0.10172455 -0.05344963 0.093437485 -0.107559055
0002e0 dd c3 f1 bd b0 51 38 3d 5b 50 c2 3c 0d fc 78 bd
       -0.11804936 0.04499978 0.023719957 -0.06078725
0002f0 a9 5d 4b bd b6 8a c0 bd bc c4 5d bc 75 8b b7 bd
       -0.04964987 -0.09401457 -0.013535675 -0.08962146
000300 fa 3a 27 bd ca 9b f9 bb 74 3d cf 3d 10 fb ab 3d
       -0.04082773 -0.0076174485 0.10119143 0.08397496
000310 aa 8e 50 3b 8e e4 55 bd 16 a1 b4 3d 85 c4 ef bc
       0.0031823316 -0.05221992 0.08819787 -0.029268513
000320 d5 62 58 3c 15 30 b3 3c 34 dc a0 bd 26 77 63 bd
       0.013207157 0.021873513 -0.078545004 -0.05553355
000330 06 3e c8 3d ba 9d bf bd 1a 23 72 3d fc 63 c3 bd
       0.09777455 -0.09356256 0.059115507 -0.09540555
000340 52 d1 c5 3d 53 97 ba 3b 29 09 be bc c9 70 47 bd
       0.09659065 0.005694309 -0.023197727 -0.048691545
000350 a8 9e 4c 3d 1f e1 c6 bd 49 29 da 3c 73 ae 5a bd
       0.049955994 -0.09710907 0.026631014 -0.053389024
000360 5f 24 88 3c 38 f0 3e bb 44 52 17 be e8 4a 69 b9
       0.016618906 -0.002913488 -0.14777476 -0.00022248516
000370 35 22 02 bd d0 4a 53 3c ac ce 99 3c 26 76 eb 3d
       -0.031770904 0.012896255 0.018775307 0.114971444
000380 bb 2a 5d bc 70 4c 24 bd f2 70 da bd 86 28 d7 3b
       -0.013498957 -0.04011196 -0.10666074 0.00656611
000390 fa 36 ad bd 0c ae 23 bc 01 93 d6 3d 7a 3a 4c bd
       -0.084577516 -0.0099902265 0.104772575 -0.049860455
0003a0 ce 4d 75 bd be 7b 7c bd 5d 8f 8b 3c 75 7f 93 bd
       -0.059888653 -0.061641447 0.017036134 -0.07202045
0003b0 b3 80 05 be 3b 45 69 bd 52 50 ec 3b 88 e7 ee bc
       -0.13037376 -0.05695079 0.0072117234 -0.029163137
0003c0 29 2a a3 bc 8a 52 a8 3c 5f f6 a3 bb c7 b7 62 bd
       -0.019917564 0.02054717 -0.005003735 -0.055351045
0003d0 6b dc 00 3e 74 d7 9f bc 24 81 e9 3d bb d2 c1 3d
       0.12584083 -0.019511916 0.11401585 0.09464022
0003e0 10 c7 00 be b0 ba fc 3d 39 6a 1a bd 55 ec ac 3c
       -0.12575936 0.12340295 -0.037698958 0.021108786
0003f0 7e 76 fd ba 8b 21 bc bd 29 f7 f6 bd 1c e0 2f bb
       -0.0019337682 -0.09186085 -0.12058861 -0.002683646

conv2.bias f4 [2]
000000 47 91 cb 3c 47 91 cb bc
       0.024849547 -0.024849547

conv2.lin.weight f4 [2, 128]
000000 3b dc 39 be c8 ca 19 be 21 1f 96 bd 24 1c ad bd
       -0.18150418 -0.15018761 -0.07330156 -0.08452633
000010 b4 5a a8 3d 00 ff ff 3c 33 c3 28 3e 08 16 1f 3d
       0.08220425 0.031249523 0.16480713 0.03883937
000020 d1 1c 2f 3e 6d f5 0f be 4c 31 62 3d ee 83 91 3d
       0.17100836 -0.14058466 0.055222794 0.07105242
000030 9d 41 6d be e1 ab 4b bd e1 93 8a bd 49 71 ba 3c
       -0.2316956 -0.049724463 -0.06766487 0.022759097
000040 f8 21 e8 bd c6 fd d0 bc c2 6f 29 3e 1e 61 20 3e
       -0.11334604 -0.025511634 0.16546538 0.15662047
000050 97 91 ae 3c 63 64 3a be 85 4b 2f be 3c b5 b4 3b
       0.021309657 -0.18202357 -0.17118652 0.005514769
000060 7d 3c b4 3d 65 5b cb bd 7b dc 6a be 35 c8 72 3e
       0.088006 -0.099295415 -0.22935669 0.23709185
000070 aa c2 ab bd e6 73 74 3e 80 ed 14 3d 64 65 13 3e
       -0.083867386 0.23872337 0.03635931 0.14394146
000080 96 a7 7e 3d 89 6c 16 3e fd 1a c7 bd 08 01 44 be
       0.06217154 0.1468984 -0.097219445 -0.19141018
000090 e7 22 53 3e 1a 66 60 be db 9e e6 3d d5 0e d3 bd
       0.20618783 -0.21913949 0.11260768 -0.10305563
0000a0 29 b9 12 be f7 3f 30 bd e9 76 49 be e4 d9 5f be
       -0.14328445 -0.04302975 -0.19674267 -0.21860462
0000b0 c6 2f 21 3e f2 c3 81 3d 9f 56 36 3e 42 9d 22 3d
       0.1574088 0.06336202 0.17806481 0.039700754
0000c0 f5 1d 14 bd 15 b9 60 be da 4e 99 3d 51 31 2e 3e
       -0.03616138 -0.21945603 0.07485743 0.17011
0000d0 c3 0e 16 be c9 aa 66 be f7 60 92 3c 9f 2b 8d 3d
       -0.14654069 -0.22526087 0.017868502 0.06893086
0000e0 21 15 21 be 7e 23 af bc 9f 19 53 be b8 92 40 be
       -0.15730716 -0.021379229 -0.20615242 -0.18805969
0000f0 59 80 0c bd c7 8c 05 be 1f 81 21 be 10 c4 1e 3e
       -0.03430209 -0.13041984 -0.15771912 0.1550448
000100 6e a8 3d be 4c f4 d6 3d 93 e6 18 3e 29 69 e8 bd
       -0.18521282 0.10495815 0.14931707 -0.11348183
000110 a7 f2 af bd 1a 36 57 3e 84 8c 4c 3d b3 24 3b bd
       -0.08591204 0.21016732 0.049938694 -0.045689296
000120 34 9a b6 3d 3a c7 42 be 1f dc 20 be 91 c5 33 bd
       0.08916131 -0.19021311 -0.1570897 -0.043889586
000130 55 20 87 bd 6e 9e f4 bd 13 a2 ad 3d 03 f6 ce 3c
       -0.06597964 -0.119442806 0.08478179 0.025263792
000140 b9 ea af bc 93 e9 df bd 7e 50 0a 3e 43 5f aa 3d
       -0.02147423 -0.109332226 0.13507268 0.08318951
000150 3f 51 6e be 95 b4 83 3c 74 30 f7 3d 72 c5 ed bd
       -0.2327318 0.01607732 0.120697886 -0.11609925
000160 d3 62 6a bd b9 de 52 3e 14 c4 fc 3c bf 42 03 be
       -0.057223152 0.20592774 0.030855216 -0.1281843
000170 4b b5 5f bd b4 8d d3 3d 4a f3 47 be 0f d2 16 be
       -0.054616254 0.10329762 -0.19526401 -0.14728568
000180 c0 be 3e 3e cc 25 84 bc 57 66 ff 3d ec 42 88 bd
       0.18627453 -0.016131304 0.12470692 -0.06653389
000190 c6 e5 25 be 34 de 5a be 8b b1 0a be d5 cb 09 3e
       -0.16200933 -0.21373826 -0.1354429 0.13456662
0001a0 7f da b5 3c 2e 8b f1 3d 5c 15 f0 3d 79 09 03 3e
       0.022198914 0.117941245 0.11722824 0.12796582
0001b0 d7 b1 54 3e 4d 99 c9 bd 8b 6a 24 be b1 34 55 be
       0.20770966 -0.09843693 -0.16056268 -0.20820881
0001c0 f9 a9 b2 3d fa 8e eb 3d d9 fa 17 bd 7d 89 35 3e
       0.08723826 0.1150188 -0.03710446 0.17728229
0001d0 f6 3e f0 3d cb 6f 33 3c 2c f9 fc 39 52 a1 35 3e
       0.11730759 0.0109519465 0.00048250833 0.1773732
0001e0 f1 89 57 3e ba c9 1b 3e ba 36 e4 bd 08 16 ca 3c
       0.21048714 0.15213671 -0.11143251 0.024668708
0001f0 ac c3 1b 3d ea 36 d2 bd d3 21 25 be bd ff d8 3b
       0.038028404 -0.1026438 -0.16126184 0.0066222833
000200 cd 6c 2c 3e 58 1d 3e 3d c0 00 0d 3e 9a aa 62 be
       0.16838379 0.046414703 0.13769817 -0.22135392
000210 36 b8 96 3d 33 63 8f bd c9 eb 09 be b7 50 b0 3b
       0.07359354 -0.070013426 -0.13468851 0.0053807157
000220 60 02 a6 3c 41 4a ef bd ac 4d 41 3d 1b a1 d6 bd
       0.020264804 -0.11684085 0.047193214 -0.10479947
000230 61 09 24 3e 2e 53 2c 3e 7d 94 14 3a 02 aa 0b be
       0.16019203 0.16828606 0.00056678784 -0.13639072
000240 20 06 29 be d6 40 91 3d 78 c9 47 3d cf 3a 3e 3e
       -0.16506243 0.070924446 0.04877612 0.18577121
000250 49 81 ef bd 65 03 11 3e ff e5 9c 3c 57 31 72 bd
       -0.11694581 0.14161451 0.01915264 -0.059129085
000260 08 f0 f2 bd 19 27 4a 3d 53 19 29 3d b2 fd 01 bd
       -0.118621886 0.049353693 0.041283917 -0.031736083
000270 a8 5f 3c be 1a 86 7d 3d 6c fa ba bc f9 91 0d bd
       -0.18395865 0.061895467 -0.022824489 -0.03456304
000280 ff 66 e6 bd 7d c1 a0 3d b8 a9 40 3e ea a7 d8 bc
       -0.11250114 0.07849405 0.18814743 -0.026447255
000290 0e 52 d9 bd 3b 6b 86 bd 0f c0 3d be 43 01 06 bd
       -0.10611354 -0.06563421 -0.18530296 -0.032716047
0002a0 1b 10 29 bd 3d 3d 43 3d 46 89 67 3d ed b2 30 3e
       -0.041275125 0.047665823 0.0565274 0.17255755
0002b0 27 15 40 3d 19 6e 60 3e ee c8 ed bd 32 ed 45 bd
       0.046895172 0.21916999 -0.1161059 -0.04832191
0002c0 ff c1 06 3e 19 f5 52 3e 88 6b 28 be e4 26 d0 bc
       0.13159941 0.2060131 -0.1644727 -0.02540917
0002d0 16 b1 02 3e 35 f3 b6 3d 74 ef 14 3e b6 4b fb bd
       0.12762865 0.08933107 0.14544469 -0.122703
0002e0 a3 0a de 3d a3 2e 8e 3d 85 13 b9 bd be 4a 10 be
       0.108418725 0.06942489 -0.09036926 -0.14091012
0002f0 b2 21 12 be ce 97 59 3e 7a 84 98 3c f1 db 24 be
       -0.14270666 0.21249315 0.018617857 -0.16099526
000300 16 3b 32 bd 86 21 f7 bd 51 1a 76 be e9 ce 6b 3d
       -0.04351338 -0.12066941 -0.24033476 0.05757037
000310 3b 8a 13 be c1 fb 54 be 97 c3 3a bc 7d 3a 09 be
       -0.144082 -0.20799161 -0.011399171 -0.13401218
000320 b2 81 2b 3e 6e d4 67 3d fa 5f c5 3d d8 5c 12 3e
       0.16748694 0.056599073 0.09637447 0.1429323
000330 2c 19 21 3b 87 89 7d 3d 50 ff 89 3c aa eb ae bd
       0.0024581654 0.061898734 0.016845375 -0.08541043
000340 be ed 37 be 84 a9 9f 3d 5e 45 43 be 76 7a 86 bd
       -0.17961785 0.077960044 -0.1906943 -0.06566326
000350 da a9 35 bd 72 f3 5f 3e f7 a9 81 bc bc 7e da 3d
       -0.044351436 0.21870211 -0.015828116 0.10668704
000360 54 83 74 3e 89 a2 27 bd ea 56 ef bd ee 43 e6 3d
       0.23878223 -0.04092649 -0.116864994 0.11243425
000370 d1 a7 d6 3d 4c 8f d1 bd 90 d0 1f 3c 19 43 c2 3d
       0.10481227 -0.1023241 0.009754315 0.09485454
000380 58 a0 00 be 9f 5b 25 bb 22 0f 2e 3d a4 d5 c3 3d
       -0.12561166 -0.0025231612 0.0424949 0.09562233
000390 dd 1a 48 3e ef 48 fb bd da 57 72 bb 76 e6 0c 3e
       0.19541498 -0.1226977 -0.0036978633 0.13759789
0003a0 75 62 d9 3d fe 05 54 be 18 87 f3 bd 99 4b 06 be
       0.10614482 -0.20705411 -0.118910015 -0.13114776
0003b0 ec 66 cb 3d ae 14 08 bd 05 5b 73 3e 34 fc 09 be
       0.0993174 -0.033222847 0.2376519 -0.13475114
0003c0 a5 67 fb 3c 1c 32 23 bd c3 0c 38 be bd 3a 9a bd
       0.03068907 -0.03984271 -0.17973618 -0.07530735
0003d0 6a 37 53 be f9 a1 b8 bd f1 12 34 be e0 3e 02 be
       -0.20626608 -0.09015269 -0.1758535 -0.12719297
0003e0 dd ae 07 be 92 38 8f 3d e7 c6 33 bd 6f a8 e2 bd
       -0.13250299 0.06993212 -0.04389086 -0.110672824
0003f0 90 7e 7a bd b2 04 2f be 8a ce 0a be cf 55 d9 3d
       -0.061155856 -0.17091635 -0.13555351 0.1061207
